libraries/edge-control-libraries/fieldbus/robotmctask/examples/config/stand.onnx (onnx, 256798 bytes, 8 tensors)

actor.0.weight f4 [256, 84]
0.3410184 -0.50275093 0.041413806 0.36505187 0.15565419 0.12918542 0.38201338 0.10335716
-0.019752242 0.26431152 -0.21196242 0.0045296145 0.46419874 0.1010713 0.06270413 0.53025
0.00182109 0.09330142 0.22940214 -0.058943164 0.17760506 0.027469011 -0.08374716 -0.2509287
0.08214418 -0.04635561 0.03481443 -0.50186634 -0.23815985 0.07127924 -0.12881994 -0.029330224
0.053995125 0.16783266 -0.07852892 0.044402592 -0.19321537 -0.004331414 -0.016350523 -0.035183746
0.2818156 0.0056132767 0.031409275 0.039568942 -0.16536774 0.055423114 -0.13647296 0.2631644
0.06715056 0.1768729 0.08472935 -0.19511357 0.032556787 0.11846737 -0.11299028 0.04672134
0.12403655 0.040966816 0.029661622 0.031351525 0.016768452 0.102631904 -0.23617034 0.08858443
-0.038168963 -0.1635567 -0.33377826 0.03400835 -0.24536096 0.055385787 0.031440105 -0.020577237
-0.0030304773 -0.04450873 0.01009712 0.14737318 -0.03936784 -0.122992106 -0.025305927 0.1275316
-0.21257713 -0.013633529 0.09095078 -0.056688994 -0.42729217 -0.1654371 0.13918963 -0.09114517
-0.15273851 0.14778742 -0.5108759 -0.19663651 0.009558291 0.1544902 -0.2872654 0.042384293
0.014979815 -0.07721822 -0.2530678 0.41800967 0.11484298 -0.15479365 0.3950782 -0.032395687
0.11168748 0.33681953 -0.15890102 0.32205534 0.4704952 -0.0030487103 0.05883532 -0.05787344
0.02672584 0.13966766 0.040911935 0.118369505 -0.14839324 -0.07512342 -0.026124455 0.4071691
-0.012215893 -0.0019825744 -0.0014964722 -0.066373535 0.05142443 -0.05126542 0.11768667 -0.023684377
-0.10838168 0.06679295 0.011346256 -0.05250464 -0.05363419 0.17659785 0.030339018 -0.036226746
0.116574764 -0.076792195 0.0038290224 0.0546943 -0.0806042 0.065722406 -0.09484219 0.028315183
0.058250476 0.051281642 -0.038998388 0.03063545 -0.07761496 0.037677564 -0.1147991 0.0014539415
-0.16476877 -0.09055402 -0.039914366 -0.019533414 0.034149002 -0.06395041 -0.024810791 0.1959592
0.030355202 -0.12795886 0.008594979 0.0067312988 0.06017833 -0.065997876 -0.05349956 0.20993099
0.22443675 0.17139733 0.13093822 0.11460898 0.22660157 -0.08872909 0.32305935 0.03690202
0.037640028 0.16354252 -0.3067581 0.00023029995 -0.051800698 -0.18158779 -0.14372388 0.28354183
-0.09457312 0.16451351 0.16980058 -0.4582795 -0.1529874 -0.072961934 0.10214974 -0.39746648
0.3263303 0.082077034 0.010174885 0.20587185 0.38859376 0.019623559 -0.02454684 0.16465522
0.024169374 -0.2068394 0.13565643 0.0038454286 0.045111656 -0.05105952 -0.04152794 -0.032664362
0.079860635 0.108244285 -0.024173299 0.0007205276 -0.060486767 0.053644337 0.03710682 0.22101696
-0.03622869 -0.0485269 -0.07522026 -0.30990332 0.045589294 0.07204787 0.010869928 0.09604204
-0.011022373 0.019978099 0.01488249 0.03617081 0.018122202 0.09584577 -0.1833347 0.088448815
-0.27730504 -0.105039276 0.17322552 0.07178321 0.07487026 -0.04229621 0.13518834 -0.09902486
0.026305465 0.044650976 -0.12580048 0.06918091 0.05242699 -0.082443945 0.0008600107 0.12054057
0.09262981 -0.037796542 0.062748946 -0.05401859 -0.008396973 0.5253104 -0.22065735 -0.10827084
00000000: f799 ae3e 49b4 00bf 86a1 293d 14e8 ba3e
00000010: d063 1f3e 2f49 043e 4297 c33e ebac d33d
00000020: 74cf a1bc d753 873e ad0c 59be 296d 943b
00000030: 75ab ed3e 78fe ce3d 066b 803d 77be 073f
00000040: a4b1 ee3a d114 bf3d 65e8 6a3e 636e 71bd
00000050: 1ade 353e b106 e13c a283 abbd ba79 80be
00000060: 353b a83d 61df 3dbd 9399 0e3d 507a 00bf
00000070: 2de0 73be dafa 913d 60e9 03be f045 f0bc
00000080: fe29 5d3d 53dc 2b3e c5d3 a0bd 7edf 353d
00000090: 40da 45be 89ee 8dbb 88f1 85bc d51c 10bd
000000a0: 224a 903e 94ef b73b 03a7 003d 0b13 223d
000000b0: 2956 29be 5903 633d 91bf 0bbe 7cbd 863e
000000c0: 3c86 893d 2b1e 353e 9586 ad3d dacb 47be
000000d0: 445a 053d 059f f23d 7367 e7bd e05e 3f3d
000000e0: e006 fe3d d2cc 273d eefc f23c 756a 003d
000000f0: fe5d 893c ad30 d23d a3d6 71be c16b b53d
00000100: 0f57 1cbd 687b 27be fce4 aabe 574c 0b3d
00000110: e73f 7bbe 35dc 623d 57c7 003d 9891 a8bc
00000120: f99a 46bb c94e 36bd 646e 253c ffe8 163e
00000130: 2c40 21bd 49e3 fbbd 604e cfbc a597 023e
00000140: d2ad 59be 2a5f 5fbc 6744 ba3d b832 68bd
00000150: 0ac6 dabe 5868 29be ba87 0e3e 52aa babd
00000160: 7c67 1cbe 9655 173e c3c8 02bf 155b 49be
00000170: 619a 1c3c ae32 1e3e 7314 93be 279b 2d3d
00000180: e66d 753c 9624 9ebd 1a92 81be 5d05 d63e
00000190: cc32 eb3d 3a82 1ebe b147 ca3e 57b1 04bd
000001a0: 68bc e43d 9c73 ac3e f3b6 22be 70e4 a43e
000001b0: bfe4 f03e dfcc 47bb 4efd 703d b30c 6dbd
000001c0: 26f0 da3c 0a05 0f3e 4693 273d b66b f23d
000001d0: 66f4 17be 4fda 99bd f402 d6bc 7878 d03e
000001e0: 2b25 48bc 14ee 01bb 4625 c4ba d9ee 87bd
000001f0: 6ca2 523d b0fb 51bd b505 f13d bd05 c2bc
00000200: 37f7 ddbd beca 883d a6e5 393c 1b0f 57bd
00000210: 86af 5bbd 11d6 343e 8889 f83c 7f62 14bd
00000220: c0be ee3d 3a45 9dbd 56f0 7a3b 2107 603d
00000230: d113 a5bd 7899 863d 9f3c c2bd 3ef5 e73c
00000240: 0d98 6e3d b30c 523d c6bc 1fbd 32f7 fa3c
00000250: 98f4 9ebd ca53 1a3d ca1b ebbd 2e92 be3a
00000260: 25b9 28be 6374 b9bd 3f7d 23bd 8a04 a0bc
00000270: d3df 0b3d 6ff8 82bd 0040 cbbc 87a9 483e
00000280: 79ab f83c a607 03be f4d1 0c3c 3a92 dc3b
00000290: 8d7d 763d e529 87bd 5b22 5bbd 26f8 563e
000002a0: bfd2 653e c882 2f3e ab14 063e 1db8 ea3d
000002b0: 3e0a 683e 99b7 b5bd 0968 a53e 9326 173d
000002c0: 6e2c 1a3d b177 273e 660f 9dbe ac7c 7139
000002d0: f82c 54bd 26f2 39be 5a2c 13be 652c 913e
000002e0: 8daf c1bd 3b76 283e 34e0 2d3e 9ca3 eabe
000002f0: bba8 1cbe 116d 95bd e233 d13d ba80 cbbe
00000300: c414 a73e 0118 a83d 90b4 263c 12d0 523e
00000310: c3f5 c63e 96c1 a03c 7416 c9bc 619b 283e
00000320: dafe c53c b5cd 53be 85e9 0a3e 9603 7c3b
00000330: 00c7 383d ca23 51bd 3419 2abd 11cb 05bd
00000340: f98d a33d 2eaf dd3d 1507 c6bc cae1 3c3a
00000350: f9c0 77bd 2aba 5b3d 52fd 173d 4552 623e
00000360: 8964 14bd 25c4 46bd 140d 9abd a6ab 9ebe
00000370: d7bb 3a3d d58d 933d c817 323c b0b1 c43d
00000380: 2f97 34bc 1ca9 a33c b0d5 733c d827 143d
00000390: 0375 943c c94a c43d 17bc 3bbe a724 b53d
000003a0: edfa 8dbe d51e d7bd 0862 313e 1303 933d
000003b0: 9455 993d ca3e 2dbd d06e 0a3e 8ccd cabd
000003c0: 8f7e d73c f1e3 363d d7d1 00be b9ae 8d3d
000003d0: afbd 563d 5fd8 a8bd 5772 613a f9dd f63d
000003e0: b3b4 bd3d 8cd0 1abd 8582 803d 9942 5dbd
000003f0: 7593 09bc be7a 063f 00f4 61be 1abd ddbd

actor.0.bias f4 [256]
0.16237931 -0.07392731 0.12228692 0.028211348 -0.14438494 0.044146053 -0.039095446 0.08244737
-0.14838478 0.10419608 0.08904493 -0.113545194 -0.16640383 0.15308759 0.015992926 -0.05006457
-0.058058277 0.017785864 0.24708503 -0.09558482 0.02245922 0.063056946 -0.13570847 0.06607489
0.115354225 -0.16894294 0.18337874 -0.15457015 -0.14210819 -0.10617897 -0.05314589 -0.05962323
-0.0062788487 -0.12137572 0.019908639 0.07602141 0.08065587 0.09711272 0.11857565 -0.110475704
0.07835626 -0.048761126 0.07393051 0.022422627 0.04389492 -0.1202198 -0.15062894 0.035217714
0.14316371 0.01963412 -0.025330557 0.05766821 -0.11231302 0.12778947 -0.061077558 -0.20335689
0.07691246 -0.011264315 -0.05085193 0.03422787 0.017375253 -0.077931754 0.02151974 0.028769605
0.06370476 0.017461581 -0.03204149 0.026661415 -0.13340709 0.009977116 0.013224411 -0.010233048
0.12205768 0.044491645 -0.062470045 0.08167405 0.027575878 -0.10404353 -0.13253602 0.048173912
-0.07567117 -0.0034819494 0.12818077 -0.16456643 -0.22221765 -0.14814816 -0.08731225 0.07478057
-0.0711698 -0.045028795 -0.06847212 -0.13767578 0.15991531 -0.12555966 -0.038571622 -0.14257717
-0.0951882 0.0064578434 -0.039416082 -0.17449225 -0.036259595 0.023983896 -0.0050880206 -0.0275346
0.03941468 -0.15463884 -0.051775374 -0.025765043 0.055218585 0.13142245 -0.057016388 0.079437844
-0.1529222 -0.0638781 -0.14717297 0.066348925 0.003419853 0.026282912 -0.025022984 -0.1767332
-0.008234389 0.013945007 0.124418266 0.09294061 0.08772376 -0.060854837 -0.13010336 0.04048434
-0.055669326 0.0971708 -0.091911465 -0.20445015 -0.0033476437 -0.09043171 0.049260132 -0.02916727
0.023951285 -0.18373132 0.09772241 -0.0366343 -0.13068129 -0.17245753 0.007909276 -0.2652701
-0.121754214 -0.032604452 -0.039792914 0.0019665842 -0.021144345 0.051085945 0.12815824 0.038707428
-0.023750555 0.07740541 -0.06293112 -0.027376609 0.105552904 0.012115557 0.15547928 -0.040627677
-0.076417334 -0.04355368 0.11871973 0.021020524 -0.018913513 -0.052235927 -0.013997499 -0.019085184
-0.015906299 -0.12913655 0.023611404 -0.33870304 -0.11290446 0.039010063 0.046403848 0.08896407
0.017483799 0.035150092 -0.060231715 0.031180784 -0.10660558 -0.019114096 -0.17396273 0.040686164
0.0022240637 -0.07878496 -0.0085543925 -0.021603243 -0.016810678 0.03721208 -0.08253562 0.1380914
-0.011404777 -0.05642598 -0.059927396 -0.037529383 -0.1844525 -0.045269746 0.02510737 0.113985755
-0.22593813 0.022159997 0.13123034 0.18244608 -0.11506213 -0.023000786 -0.18131883 0.043808475
-0.083640724 0.0315638 0.013608531 0.049545582 0.17001736 -0.016359 -0.01466873 -0.098499924
0.08131167 -0.119717635 -0.016205963 -0.06805761 -0.09992219 -0.0864591 0.046077907 -0.15475686
0.026284335 -0.13371357 -0.05608793 0.12712184 0.024264382 -0.08703817 0.08229028 -0.05124114
-0.10656889 -0.004968208 -0.07046653 -0.20900396 0.08375537 0.022271134 0.11498134 0.08662212
0.042865075 -0.024276918 -0.08971751 -0.032045208 0.03364239 -0.1583131 -0.026583161 -0.2660631
0.121077925 -0.014435946 -0.09266804 -0.22142543 0.14667672 0.07162015 -0.09498168 -0.04178574
00000000: c346 263e 3467 97bd 9171 fa3d 7c1b e73c
00000010: a5d9 13be 7ed2 343d 8c22 20bd 2bda a83d
00000020: 2ef2 17be c164 d53d 305d b63d 628a e8bd
00000030: c465 2abe fec2 1c3e 9903 833c 8210 4dbd
00000040: 84ce 6dbd a9b3 913c dc03 7d3e f9c1 c3bd
00000050: 66fc b73c 0024 813d 29f7 0abe 4652 873d
00000060: d63e ec3d 61ff 2cbe a3c7 3b3e a347 1ebe
00000070: cf84 11be 5c74 d9bd 81af 59bd 7d37 74bd
00000080: cdbe cdbb d593 f8bd 7117 a33c 1db1 9b3d
00000090: e82e a53d 09e3 c63d cad7 f23d 1641 e2bd
000000a0: 3f79 a03d bfb9 47bd e168 973d a8af b73c
000000b0: 29cb 333d cc35 f6bd 793e 1abe 7340 103d
000000c0: 8299 123e bcd7 a03c 0782 cfbc 8035 6c3d
000000d0: 5e04 e6bd 3edb 023e 762c 7abd ca3c 50be
000000e0: 4884 9d3d f68d 38bc 1d4a 50bd 8632 0c3d
000000f0: 8c56 8e3c af9a 9fbd 2a4a b03c 3cae eb3c
00000100: a477 823d 970b 8f3c f03d 03bd 0a69 da3c
00000110: de9b 08be 0f77 233c 33ab 583c 84a8 27bc
00000120: 60f9 f93d df3c 363d 97e0 7fbd b944 a73d
00000130: cfe6 e13c c614 d5bd 86b7 07be 0252 453d
00000140: 7df9 9abd 6b31 64bb d241 033e 1a84 28be
00000150: 068d 63be 27b4 17be c4d0 b2bd 8e26 993d
00000160: 79c1 91bd 1d70 38bd 1c3b 8cbd e1fa 0cbe
00000170: d7c0 233e b692 00be 47fd 1dbd c0ff 11be
00000180: 08f2 c2bd 519c d33b c272 21bd 19ae 32be
00000190: f184 14bd e079 c43c 69b9 a6bb 3e90 e1bc
000001a0: 4a71 213d a559 1ebe 6a12 54bd 3611 d3bc
000001b0: e22c 623d 9b93 063e 048a 69bd 4fb0 a23d
000001c0: a397 1cbe 85d2 82bd 83b4 16be f2e1 873d
000001d0: 9d1f 603b 434f d73c 00fd ccbc 8cf9 34be
000001e0: 88e9 06bc 9979 643c 01cf fe3d a657 be3d
000001f0: 84a8 b33d ec42 79bd d139 05be e8d2 253d
00000200: 8505 64bd 7c01 c73d 143c bcbd 615b 51be
00000210: 2464 5bbb 4334 b9bd fec4 493d 33f0 eebc
00000220: 7c35 c43c 1024 3cbe b022 c83d d90d 16bd
00000230: 51d1 05be b598 30be e895 013c 7cd1 87be
00000240: 465a f9bd 3f8c 05bd e5fd 22bd cfe1 003b
00000250: e836 adbc 7f3f 513d ea3b 033e ae8b 1e3d
00000260: 8690 c2bc ba86 9e3d 08e2 80bd e944 e0bc
00000270: 1f2c d83d 5480 463c f635 1f3e 3569 26bd
00000280: b180 9cbd 5865 32bd 5423 f33d 3c33 ac3c
00000290: 83f0 9abc 57f5 55bd c455 65bc 8858 9cbc
000002a0: ed4d 82bc 5f3c 04be b46c c13c 7c6a adbe
000002b0: 743a e7bd 04c9 1f3d f611 3e3d cb32 b63d
000002c0: 2f3a 8f3c 8bf9 0f3d 88b5 76bd d86e ff3c
000002d0: 0754 dabd 2a95 9cbc 4923 32be 89a6 263d
000002e0: 99c1 113b 025a a1bd b927 0cbc 49f9 b0bc
000002f0: 8cb6 89bc b26b 183d 6f08 a9bd d567 0d3e
00000300: 1adb 3abc ee1e 67bd 6e76 75bd 69b8 19bd
00000310: 1ee1 3cbe c56c 39bd f9ad cd3c 5d71 e93d
00000320: 535c 67be e288 b53c 3f61 063e 25d3 3a3e
00000330: b2a5 ebbd 256c bcbc a5ab 39be 8470 333d
00000340: d44b abbd 0b49 013d 51f6 5e3c 4ff0 4a3d
00000350: 0819 2e3e 4f03 86bc 1d55 70bc 54ba c9bd
00000360: bc86 a63d 852e f5bd 5ec2 84bc ca61 8bbd
00000370: 01a4 ccbd 7811 b1bd 30bc 3c3d 9578 1ebe
00000380: 3f52 d73c 36ec 08be 75bc 65bd 3a2c 023e
00000390: 19c6 c63c 1141 b2bd ce87 a83d 3be2 51bd
000003a0: ca40 dabd 59cc a2bb c250 90bd 2205 56be
000003b0: ef87 ab3d f471 b63c 567b eb3d f066 b13d
000003c0: 4a93 2f3d 63e0 c6bc d0bd b7bd d641 03bd
000003d0: 9acc 093d d41c 22be eec4 d9bc 6c39 88be
000003e0: b4f7 f73d bf84 6cbc bec8 bdbd 59bd 62be
000003f0: 6c32 163e 96ad 923d c185 c2bd 8627 2bbd

actor.2.weight f4 [128, 256]
-0.23703277 -0.15807545 -0.0070421896 0.13884453 0.04139423 0.064921066 -0.10577452 -0.14662836
0.0769913 0.040713593 -0.098121844 0.02227925 0.12869124 -0.06894901 0.06271514 -0.034273386
0.10749731 -0.0064450577 0.013367822 -0.016386397 0.14327702 -0.04051239 0.114652075 0.03543524
0.065972924 0.02746805 0.025652712 -0.09660942 0.018726297 -0.09785302 -0.15015157 0.0075138076
-0.057868183 0.16745406 -0.20299473 -0.05703643 -0.17866431 0.061493818 0.046817396 -0.010805032
0.0880516 -0.020211285 -0.05625676 -0.16859664 0.11328761 0.13035637 0.13361719 0.08000766
0.0062485877 -0.18871118 -0.18507145 -0.021320026 -0.058519535 -0.0070985765 0.08704879 -0.01711213
-0.10425976 -0.19068363 -0.07100286 0.05813489 0.05329003 0.10896714 0.085344225 -0.25217125
-0.07269901 0.18475714 0.1213357 -0.108780995 -0.08692962 -0.030641897 -0.17757764 -0.075532645
0.10537263 0.1456456 0.078711696 -0.012441244 -0.06430122 -0.042343505 0.012094158 0.009752131
-0.07305186 0.17722322 -0.16915773 -0.03549071 -0.003954476 -0.13676225 -0.08683369 -0.1357073
0.19156347 -0.04233404 0.15559597 0.09205687 0.10946074 -0.021464018 -0.010452825 -0.039403304
0.02158262 -0.05711311 -0.22085749 0.16553533 0.12206384 -0.08711499 -0.045691848 0.004312685
0.15939173 -0.01961809 -0.18369357 -0.20601791 -0.10004375 0.06084805 0.16337676 0.0650369
0.031572238 0.01275322 -0.0058413367 -0.0137189645 -0.12649763 -0.07416319 -0.001943893 -0.037686277
-0.043806035 -0.15518656 -0.036561962 -0.105134584 0.010422052 -0.11021397 0.064560406 0.006770602
-0.0802656 0.06410926 0.083184734 -0.11305235 -0.34319592 -0.26632166 -0.019179435 0.004547619
-0.21803227 -0.054277275 -0.09843324 -0.00520793 -0.12874094 -0.17083308 0.06351032 0.12865351
-0.079599485 -0.03433953 -0.01104483 0.15561032 0.16325335 0.09216196 -0.041596092 -0.019018542
0.041167952 -0.014637541 0.12800075 -0.13453613 0.16249655 -0.10928061 0.22211643 -0.24086508
-0.009252924 -0.13836145 0.13086183 -0.070911385 0.035473257 -0.02802653 -0.03463141 -0.076865785
-0.0047965096 0.111478575 -0.085754886 -0.046530746 -0.06179065 -0.17207472 0.0028042942 0.014431566
0.008770397 -0.073189236 0.008690067 0.03375343 -0.07921672 -0.0047567785 -0.11467359 -0.11814685
0.03666388 -0.047338862 -0.057481047 0.16173911 0.037843183 0.0018796994 -0.044058178 -0.18997186
-0.023467375 0.10339434 0.097997524 0.086379 -0.0027015593 -0.004699143 0.0705946 0.08245552
-0.01690158 -0.025964191 0.03805195 -0.0925918 0.03126062 0.020138422 0.046915807 -0.001153085
0.19760041 -0.032779656 0.09958401 -0.052224673 -0.05439957 0.013355466 -0.04094024 -0.14829959
0.079977416 0.021612855 0.11295067 -0.005650204 -0.07857544 -0.087654166 0.023654614 -0.03361424
-0.07396205 0.07470644 0.029035121 0.20559096 -0.0965507 -0.011854534 0.06271231 -0.0031766254
0.08414442 -0.05491579 0.007977683 0.052524894 -0.020534454 0.061191645 -0.071948946 -0.087558925
-0.21476607 0.03287094 0.10377443 -0.038055606 -0.1535572 -0.09302068 0.012586565 0.025164368
-0.0018073939 -0.10242797 -0.06050316 -0.04446968 0.090082854 -0.076398745 0.09848746 0.039465353
00000000: b8b8 72be 88de 21be 2bc2 e6bb 432d 0e3e
00000010: ff8c 293d 56f5 843d 50a0 d8bd bf25 16be
00000020: 9dad 9d3d 4cc3 263d 1bf4 c8bd f982 b63c
00000030: a3c7 033e 2335 8dbd cc70 803d 4062 0cbd
00000040: 8d27 dc3d 1031 d3bb b604 5b3c c43c 86bc
00000050: 36b7 123e 52f0 25bd b5ce ea3d 8b24 113d
00000060: d01c 873d ad04 e13c a325 d23c 29db c5bd
00000070: e467 993c 2a67 c8bd 55c1 19be 6336 f63b
00000080: 3007 6dbd 1479 2b3e dadd 4fbe 089f 69bd
00000090: c7f3 36be f1e0 7b3d 99c3 3f3d 9707 31bc
000000a0: 6654 b43d 2392 a5bc 7d6d 66bd 99a4 2cbe
000000b0: 5603 e83d 247c 053e f2d2 083e 0edb a33d
000000c0: f4c0 cc3b 813d 41be 5f83 3dbe 56a7 aebc
000000d0: 2eb2 6fbd 2d9b e8bb a346 b23d bd2e 8cbc
000000e0: 2486 d5bd 9242 43be f369 91bd da1e 6e3d
000000f0: a646 5a3d 2a2a df3d f4c8 ae3d 971c 81be
00000100: 38e3 94bd fa30 3d3e da7e f83d 92c8 debd
00000110: 2808 b2bd b704 fbbc ead6 35be dcb0 9abd
00000120: 9bcd d73d 1f24 153e 9933 a13d 5cd6 4bbc
00000130: 5cb0 83bd 6270 2dbd 9326 463c 67c7 1f3c
00000140: 379c 95bd 017a 353e af37 2dbe b55e 11bd
00000150: 8d94 81bb 670b 0cbe ddd5 b1bd dbf6 0abe
00000160: 3729 443e 7566 2dbd 8d54 1f3e 5088 bc3d
00000170: f42c e03d 4fd5 afbc 5342 2bbc 5c65 21bd
00000180: 09ce b03c 70ef 69bd 7728 62be 1882 293e
00000190: 9bfc f93d 5869 b2bd 6027 3bbd 6d51 8d3b
000001a0: 9637 233e 1eb6 a0bc 2b1a 3cbe 5cf6 52be
000001b0: bde3 ccbd ce3b 793d 3d4c 273e 1132 853d
000001c0: e451 013d e2f2 503c af68 bfbb 82c5 60bc
000001d0: 9888 01be dfe2 97bd 3aca feba ed5c 1abd
000001e0: f56d 33bd 3ae9 1ebe ffc1 15bd cd50 d7bd
000001f0: 41c1 2a3c ddb7 e1bd 3f38 843d eddb dd3b
00000200: 4a62 a4bd b74b 833d c25c aa3d fe87 e7bd
00000210: 60b7 afbe 505b 88be 311e 9dbc 3104 953b
00000220: da43 5fbe d951 5ebd 5e97 c9bd 49a7 aabb
00000230: aad4 03be deee 2ebe b311 823d bfbd 033e
00000240: 0e05 a3bd 9ba7 0cbd 60f5 34bc 5058 1f3e
00000250: e32b 273e 69bf bc3d aa60 2abd c6cc 9bbc
00000260: ba9f 283d 4cd2 6fbc a112 033e d7c3 09be
00000270: 7f65 263e 83ce dfbd 7d72 633e 56a5 76be
00000280: 9399 17bc a0ae 0dbe a500 063e fd39 91bd
00000290: 684c 113d e597 e5bc aad9 0dbd cf6b 9dbd
000002a0: 0a2c 9dbb e14e e43d 42a0 afbd 0697 3ebd
000002b0: 3118 7dbd 5b34 30be 40c8 373b 6072 6c3c
000002c0: b6b1 0f3c 3de4 95bd c860 0e3c 0941 0a3d
000002d0: 603c a2bd c0de 9bbb fdd9 eabd faf6 f1bd
000002e0: dd2c 163d 65e6 41bd 3f71 6bbd f09e 253e
000002f0: 7401 1b3d 3f60 f63a 5976 34bd fc87 42be
00000300: a73e c0bc 69c0 d33d edb2 c83d 79e7 b03d
00000310: a50c 31bb 45fb 99bb e793 903d 71de a83d
00000320: 2f75 8abc dbb2 d4bc 5ddc 1b3d c5a0 bdbd
00000330: 230b 003d 55f9 a43c ca2a 403d 1d23 97ba
00000340: c357 4a3e f643 06bd b4f2 cb3d 8ae9 55bd
00000350: 15d2 5ebd e2d0 5a3c f4b0 27bd d9db 17be
00000360: 33cb a33d 710d b13c ae52 e73d 5925 b9bb
00000370: 29ec a0bd 0784 b3bd 52c7 c13c 16af 09bd
00000380: 6a79 97bd b1ff 983d 10db ed3c 7086 523e
00000390: 60bc c5bd 8539 42bc 506f 803d ee2e 50bb
000003a0: e953 ac3d 61ef 60bd d4b4 023c 5824 573d
000003b0: df37 a8bc 17a4 7a3d f859 93bd 1852 b3bd
000003c0: a3eb 5bbe aea3 063d b087 d43d 32e0 1bbd
000003d0: 193e 1dbe a081 bebd e137 4e3c 8125 ce3c
000003e0: 13e6 ecba c1c5 d1bd 29d2 77bd d725 36bd
000003f0: 5c7d b83d f276 9cbd cbb3 c93d 6ca6 213d

actor.2.bias f4 [128]
-0.113436446 -0.08497906 -0.0023745666 -0.08668299 -0.0747212 -0.10250187 0.057511743 -0.057793368
-0.10473237 0.054287888 -0.07215578 -0.049190234 -0.037470367 -0.034826916 -0.15567896 -0.13882424
0.06724623 -0.10381067 -0.03832492 0.04055829 -0.043889377 -0.14425087 -0.08315898 -0.0051172436
-0.09305878 -0.04228494 -0.13772008 -0.00022898769 0.12519261 -0.005697425 -0.04411007 -0.021835415
0.026180115 -0.09120184 0.08902265 -0.048406526 0.053392127 0.030168552 -0.07522017 -0.09749549
-0.14796767 -0.06939528 -0.054676406 -0.11203387 0.047163244 -0.088006936 0.11066975 -0.079957835
-0.06616862 -0.10631632 -0.20496742 -0.060513522 -0.120926075 -0.014544154 -0.19316237 -0.06427769
0.02550355 0.02511616 -0.10381879 0.038499806 0.06209156 -0.002798662 -0.19282568 -0.16770215
-0.080049485 -0.04957859 0.071109205 0.065848134 -0.03510276 -0.19532025 0.0002727681 -0.09184359
-0.060998198 -0.072856106 -0.047421616 -0.081945516 -0.054841783 0.06980916 -0.06733554 -0.04518969
-0.1395491 -0.036463093 -0.16804965 -0.10792205 -0.1019383 -0.015701696 -0.08807847 -0.028439976
-0.081535116 0.03361092 -0.0128172785 -0.029538892 -0.10047137 0.020370647 -0.076180734 -0.005219979
0.028180383 -0.12570597 -0.116567016 -0.13414638 -0.08728625 -0.22260287 -0.08238633 -0.23299043
-0.086294256 -0.2208255 0.021035874 -0.052030344 -0.039619517 -0.0821391 -0.027352916 -0.16251203
-0.11289747 0.005533023 0.0004176306 -0.08860727 0.10879972 -0.025076032 -0.068394795 -0.079951376
-0.06576191 0.099553466 -0.0400344 0.040318348 -0.12392416 -0.120050706 -0.27380115 -0.036036734
00000000: 5e51 e8bd 8009 aebd 9e9e 1bbb da86 b1bd
00000010: 6e07 99bd 80ec d1bd 6f91 6b3d bdb8 6cbd
00000020: ed7d d6bd fa5c 5e3d 69c6 93bd b37b 49bd
00000030: 877a 19bd aba6 0ebd 4e6a 1fbe f127 0ebe
00000040: 64b8 893d b09a d4bd 97fa 1cbd 7320 263d
00000050: 59c5 33bd 80b6 13be 414f aabd 8dae a7bb
00000060: 9a95 bebd f932 2dbd 7e06 0dbe 6a1c 70b9
00000070: 7e32 003e 77b1 babb c3ac 34bd 2fe0 b2bc
00000080: ae77 d63c 08c8 babd 8251 b63d ec45 46bd
00000090: b4b1 5a3d 0a24 f73c 080d 9abd b7ab c7bd
000000a0: d684 17be 1d1f 8ebd 5ef4 5fbd 0372 e5bd
000000b0: 3f2e 413d fb3c b4bd d2a6 e23d efc0 a3bd
000000c0: 6a83 87bd 5fbc d9bd fbe2 51be 07dd 77bd
000000d0: 17a8 f7bd 9a4a 6ebc 5bcc 45be 06a4 83bd
000000e0: d2ec d03c 68c0 cd3c f29e d4bd f9b1 1d3d
000000f0: b853 7e3d c269 37bb 1874 45be 1dba 2bbe
00000100: fcf0 a3bd eb12 4bbd b4a1 913d 63db 863d
00000110: e9c7 0fbd 0802 48be 5102 8f39 7e18 bcbd
00000120: 3fd9 79bd 9535 95bd 2b3d 42bd 0dd3 a7bd
00000130: c7a1 60bd 1bf8 8e3d 37e7 89bd d318 39bd
00000140: f6e5 0ebe 535a 15bd 3515 2cbe 3c06 ddbd
00000150: 07c5 d0bd d8a0 80bc 7c62 b4bd f4fa e8bc
00000160: e2fb a6bd 9bab 093d 90ff 51bc 8cfb f1bc
00000170: efc3 cdbd 58e0 a63c a504 9cbd 5c0c abbb
00000180: 8cda e63c 11b9 00be b0ba eebd ab5d 09be
00000190: 22c3 b2bd 02f2 63be 2aba a8bd 0b95 6ebe
000001a0: 0bbb b0bd 1420 62be 6d53 ac3c c51d 55bd
000001b0: 1348 22bd 8b38 a8bd 3913 e0bc 8e69 26be
000001c0: ca36 e7bd 5c4e b53b 6ef5 da39 ba77 b5bd
000001d0: 63d2 de3d 406c cdbc 9212 8cbd 8cbd a3bd
000001e0: 2eae 86bd b0e2 cb3d 1cfb 23bd da24 253d
000001f0: f3cb fdbd 25dd f5bd aa2f 8cbe 419b 13bd

actor.4.weight f4 [64, 128]
-0.1514254 0.028224189 -0.117504634 -0.06264045 0.01658128 0.05078245 0.05188009 0.1352513
0.16204919 0.025960851 0.0117789395 -0.14733662 -0.077083394 -0.27398744 -0.13149513 -0.06369873
0.0899931 0.065905474 -0.04214925 0.04194152 -0.20303679 -0.12487164 -0.1269919 -0.08037894
-0.03903089 -0.067797005 0.0167505 -0.028824579 0.040176626 -0.031065354 0.07936843 -0.10531569
0.075367145 0.047469456 -0.04191362 0.01675934 -0.027911684 -0.07891916 0.02705597 0.03227494
0.0446213 0.16219251 -0.069599755 0.06352927 0.07074179 0.1339606 -0.004646127 0.0042785998
0.06694734 0.14254956 -0.13054028 -0.026291411 0.18787833 0.08100146 0.07420617 -0.07686147
0.09624327 0.014028208 -0.02028714 0.12994017 0.08538605 -0.08525148 -0.15649247 -0.024281157
0.06493356 -0.013265138 0.047785264 0.08150409 -0.08129398 0.097832255 -0.03845021 -0.040477604
-0.08366819 0.025063084 -0.01523528 -0.083284765 0.13004315 0.12674892 -0.13002765 -0.043564606
0.077556446 0.06823818 -0.07680657 -0.0379145 -0.05888031 -0.0774913 0.04717199 0.031243244
0.022864575 0.043010376 0.08331958 0.07705592 0.09442153 0.076894976 0.080628596 -0.19568819
-0.08669864 -0.11003235 -0.08379144 -0.06537023 -0.009623912 0.1632897 0.0171118 0.024328567
-0.12843743 0.09420085 0.026534088 0.08015759 -0.07305215 -0.047774658 0.22796075 -0.049056455
0.07697026 -0.038153052 0.093892105 0.06975977 0.16744484 0.06543558 0.11565318 0.057103343
-0.025194574 -0.047291026 -0.13822667 0.018952351 -0.023357373 0.17475821 0.09305971 0.12095804
-0.1452828 0.07830725 0.21481186 0.08657876 -0.09774288 0.13789685 0.108233415 0.04854231
0.035139326 0.013362702 0.06194233 -0.048305716 -0.073614396 0.132825 0.052875176 -0.025557099
-0.043224998 -0.08919664 0.020172799 0.06837882 -0.10428991 -0.054706093 0.022207288 0.10881276
0.049202703 -0.14165993 -0.015708748 -0.2079969 -0.0067058853 0.0014622614 0.056444705 -0.009310426
-0.122574136 0.083027504 -0.19054623 -0.05434316 -0.11366031 0.042181212 0.15580936 0.045572076
0.044360287 -0.031582434 -0.011647499 -0.033628725 -0.003572722 -0.028742712 0.025648795 0.033458497
-0.024109006 0.24170825 -0.00036800522 -0.16467486 -0.1474284 -0.10134757 0.18464175 -0.02252367
0.121958055 -0.20215604 -0.02202122 0.113669425 -0.123569116 0.22032957 0.019954927 -0.061256487
0.014500508 0.020123573 0.11247208 -0.07274556 -0.05086606 -0.008751885 -0.16603747 -0.020042298
-0.017555023 -0.028131837 0.012270875 0.014456109 -0.20157734 -0.013093617 0.04049264 0.02281362
0.08677244 -0.00852133 0.0741467 0.10920523 0.044633724 0.06434871 -0.2444611 0.121607445
-0.039810922 -0.030729437 0.08406781 0.049903974 0.12570526 -0.049729668 -0.1564702 -0.03099973
-0.038804866 0.039977033 -0.06524001 -0.007995774 -0.06798325 0.21511985 -0.21841131 0.045553245
0.1992475 0.04581744 -0.041162513 0.12734097 0.052796464 -0.014074306 -0.0047307676 -0.0015414052
0.055396892 -0.18153046 -0.040352866 -0.008643057 -0.05149865 0.07352432 -0.07046191 0.06662254
-0.055515274 -0.093112476 0.07762186 -0.051385112 -0.16151847 0.10211957 0.05958925 0.09028652
00000000: 430f 1bbe 6a36 e73c 45a6 f0bd a349 80bd
00000010: 77d5 873c 4201 503d 3880 543d 517f 0a3e
00000020: 39f0 253e daab d43c 74fc 403c 69df 16be
00000030: e6dd 9dbd 1548 8cbe a9a6 06be 7b74 82bd
00000040: 4d4e b83d 73f9 863d b1a4 2cbd dfca 2b3d
00000050: e0e8 4fbe b4bc ffbd 2a0a 02be b79d a4bd
00000060: dbde 1fbd 28d9 8abd 5838 893c 8621 ecbc
00000070: 3f90 243d c57c febc ea8b a23d c1af d7bd
00000080: 175a 9a3d 556f 423d 9ead 2bbd e24a 893c
00000090: 0ba7 e4bc 5ea0 a1bd 7ba4 dd3c ba32 043d
000000a0: d3c4 363d cb15 263e 518a 8ebd a21b 823d
000000b0: 12e1 903d f82c 093e 8a3e 98bb 7f33 8c3b
000000c0: b01b 893d 83f8 113e 5aac 05be 1661 d7bc
000000d0: 2d63 403e 18e4 a53d 68f9 973d 8c69 9dbd
000000e0: 311b c53d 92d6 653c 3731 a6bc 090f 053e
000000f0: e2de ae3d 5498 aebd 903f 20be 47e9 c6bc
00000100: e3fb 843d 0556 59bc 7bba 433d 9eeb a63d
00000110: 757d a6bd 475c c83d f87d 1dbd d8cb 25bd
00000120: 3a5a abbd 1951 cd3c 659d 79bc 3491 aabd
00000130: 082a 053e 78ca 013e f825 05be cd70 32bd
00000140: ead5 9e3d 75c0 8b3d c34c 9dbd 3c4c 1bbd
00000150: 7b2c 71bd c2b3 9ebd 6b37 413d d5f1 ff3c
00000160: 7d4e bb3c a62b 303d 75a3 aa3d 7fcf 9d3d
00000170: 1360 c13d 1d7b 9d3d 9b20 a53d 7c62 48be
00000180: 0e8f b1bd a458 e1bd d99a abbd d4e0 85bd
00000190: 9dad 1dbc 6a35 273e 0c2e 8c3c b44c c73c
000001a0: 1a85 03be 60ec c03d 045e d93c aa29 a43d
000001b0: 5e9c 95bd 5caf 43bd 8b6e 693e 6cef 48bd
000001c0: 95a2 9d3d 6046 1cbd 814a c03d 36de 8e3d
000001d0: a976 2b3e 1703 863d 93db ec3d 32e5 693d
000001e0: da64 cebc 3cb4 41bd 4b8b 0dbe f641 9b3c
000001f0: f657 bfbc d1f3 323e 1796 be3d d9b8 f73d
00000200: 04c5 14be 8d5f a03d a4f7 5b3e 3450 b13d
00000210: 6b2d c8bd d534 0d3e 7ba9 dd3d 4dd4 463d
00000220: 41ee 0f3d 3cef 5a3c 3eb7 7d3d 37dc 45bd
00000230: 25c3 96bd 4703 083e a493 583d 1f5d d1bc
00000240: b20c 31bd baac b6bd 6d41 a53c 320a 8c3d
00000250: f395 d5bd 7f13 60bd 0fec b53c 39d9 de3d
00000260: c688 493d 4d0f 11be a2af 80bc 24fd 54be
00000270: 0bbd dbbb 5aa9 bf3a 9032 673d c28a 18bc
00000280: 2608 fbbd 530a aa3d 8d1e 43be ef96 5ebd
00000290: bdc6 e8bd 35c6 2c3d 7d8c 1f3e c9a9 3a3d
000002a0: 22b3 353d 955c 01bd 27d5 3ebc 46be 09bd
000002b0: 5424 6abb d675 ebbc 6c1d d23c c70b 093d
000002c0: 4080 c5bc 5e82 773e d3f0 c0b9 87a0 28be
000002d0: 78f7 16be 518f cfbd ba12 3d3e 8f83 b8bc
000002e0: 25c5 f93d fe01 4fbe d865 b4bc 84cb e83d
000002f0: ce11 fdbd 139e 613e 8478 a33c 15e8 7abd
00000300: 8a93 6d3c 31da a43c c357 e63d a0fb 94bd
00000310: ee58 50bd 1164 0fbc ba05 2abe bf2f a4bc
00000320: 8dcf 8fbc bd74 e6bc c80b 493c 51d9 6c3c
00000330: 4a6a 4ebe 9c86 56bc 9cdb 253d a1e3 ba3c
00000340: c0b5 b13d 0c9d 0bbc 3ada 973d fea6 df3d
00000350: dad1 363d 42c9 833d 0354 7abe 530d f93d
00000360: c710 23bd 4dbc fbbc be2b ac3d 1c68 4c3d
00000370: e1b8 003e 56b1 4bbd b939 20be 25f3 fdbc
00000380: daf1 1ebd f5be 233d 8e9c 85bd b500 03bc
00000390: cd3a 8bbd 6148 5c3e 37a7 5fbe 0a96 3a3d
000003a0: 8907 4c3e 11ab 3b3d 069a 28bd ac65 023e
000003b0: 1b41 583d eb97 66bc 8e04 9bbb fa08 caba
000003c0: dae7 623d 1fe3 39be 0c49 25bd 9c9b 0dbc
000003d0: 40f0 52bd eb93 963d 554e 90bd 6671 883d
000003e0: fc63 63bd c1b1 bebd 36f8 9e3d 3279 52bd
000003f0: 1965 25be 1124 d13d db13 743d 24e8 b83d

actor.4.bias f4 [64]
0.023815878 -0.049797025 -0.0015761611 0.08315628 -0.0009918237 -0.015764922 -0.013975658 -0.08323942
-0.16046074 0.04711765 -0.29093376 -0.09721637 0.054372 -0.029185263 0.05850013 -0.029657202
-0.1655971 0.13827789 0.0712445 0.120226614 0.023819666 -0.10044265 0.023781177 0.05124058
-0.028126387 0.014505414 -0.23861653 0.024952995 -0.09671128 0.09269814 -0.11652994 -0.15328926
-0.021758564 -0.023680778 0.015400271 -0.03220136 -0.016956186 0.15094733 -0.19368888 0.12375489
-0.02839611 -0.090925254 -0.15703253 -0.20030068 0.001671725 -0.14615802 0.005041304 -0.04984687
-0.15655644 -0.0816263 -0.10138681 -0.048329875 -0.15417531 -0.12590998 0.1538156 0.030187849
-0.12075338 -0.040774673 -0.090637706 0.02887794 -0.10055084 -0.031662796 0.05875219 0.045849707
00000000: 8419 c33c f7f7 4bbd 3197 ceba d74d aa3d
00000010: 1500 82ba 7025 81bc 29fa 64bc 6e79 aabd
00000020: d24f 24be 70fe 403d 45f5 94be 6019 c7bd
00000030: 2db5 5e3d ef15 efbc d59d 6f3d a9f3 f2bc
00000040: 4992 29be b898 0d3e a3e8 913d 5f39 f63d
00000050: 7621 c33c e0b4 cdbd bed0 c23c a4e1 513d
00000060: 4f69 e6bc 1ea8 6d3c e457 74be 396a cc3c
00000070: 9010 c6bd 86d8 bd3d 40a7 eebd dcf7 1cbe
00000080: 043f b2bc 31fe c1bc 6b51 7c3c 93e5 03bd
00000090: b3e7 8abc f091 1a3e 6156 46be 3473 fd3d
000000a0: f59e e8bc 0537 babd 23cd 20be 9f1b 4dbe
000000b0: c81d db3a 73aa 15be 8631 a53b 3b2c 4cbd
000000c0: 5550 20be b12b a7bd e3a3 cfbd 8cf5 45bd
000000d0: 22e0 1dbe 8cee 00be d681 1d3e 824c f73c
000000e0: 8c4d f7bd 5803 27bd 43a0 b9bd 6e91 ec3c
000000f0: 99ed cdbd d9b0 01bd 23a6 703d e7cc 3b3d

actor.6.weight f4 [15, 64]
-0.078483015 0.008989154 -0.015932402 -0.15142928 0.0064175734 -0.035229154 0.0247565 0.03935876
0.1579463 -0.06092207 0.1323529 0.08903789 0.009532538 0.023916548 0.043971706 -0.015928488
0.08238872 -0.14622772 -0.10918509 -0.060217824 -0.0052769193 0.0130322315 -0.07001806 -0.0126832
0.023342343 0.0635583 0.09876671 0.10060609 -0.004972264 -0.08381838 -0.044649024 0.03234817
0.014787858 0.002402645 -0.045910344 -0.00199611 0.07262224 -0.1520307 0.057650506 -0.02406188
-0.020610265 0.10088295 0.030179039 -0.033937305 0.030680688 0.09996697 -0.13522829 0.08972236
-0.054181192 -0.09510618 0.055547737 -0.008707133 0.0030127072 -0.03648279 -0.08295719 -0.03906635
0.025664158 0.056957368 -0.040569533 0.03402626 -0.034852218 -0.054648895 -0.022496661 -0.021123882
0.05852728 -0.034267966 0.055374205 -0.12836148 -0.1256176 -0.06604808 0.10247743 -0.0004924118
0.18373857 -0.03609339 0.11382117 0.116763264 -0.032565914 0.0045617847 -0.07325193 0.054290753
-0.108056925 -0.024305923 0.031688843 -0.01881625 -0.05645278 0.02429899 0.083794184 0.0017700067
0.028369809 -0.03178642 0.06184054 0.08924269 0.075305544 -0.022074604 0.17852253 0.06643326
0.08450267 0.045399357 0.14200921 -0.018407978 -0.08099481 -0.0019002762 -0.028730266 -0.05842464
0.11226992 -0.07475308 -0.0055803685 0.13683884 -0.05414821 0.19079918 -0.005547476 0.02418486
-0.048263337 0.037718773 -0.07596309 0.0893407 0.12405094 0.050627187 -0.05602001 0.122857936
0.15149394 -0.019917483 0.0778286 0.0075446665 -0.09270146 -0.055488333 -0.14315523 -0.03556823
0.0066196946 -0.07581941 -0.03638458 0.019837765 0.053866535 0.009139094 -0.05180709 0.027748937
0.011410152 -0.057293914 0.023394696 0.046194237 0.022137765 0.012840315 0.04242355 0.044425312
0.02961209 -0.07497954 0.035274025 -0.009667938 -0.010295097 -0.10642838 0.038718294 0.0057824664
-0.022653788 0.018510602 0.0030459813 0.035421 0.04509464 0.043544035 -0.07445523 -0.08190452
-0.0056631914 0.060213543 -0.028054575 -0.014497485 -0.00850163 -0.019213777 -0.019503025 0.053685557
0.001873916 -0.019637343 -0.117885835 -0.02263556 0.005918488 0.004849922 0.004263559 -0.14122045
-0.009273192 -0.1297808 0.038239755 -0.11160007 -0.019326273 -0.021634318 0.07563408 0.07462519
-0.03649079 -0.048805814 0.054386344 -0.011568593 0.039759915 -0.028770948 0.02749794 -0.041853428
0.062793314 0.075719655 -0.08354204 -0.0059927385 -0.084395096 0.066507325 -0.044708345 0.014669999
0.08633037 0.054203525 -0.13866752 0.055069134 0.050531752 0.038693454 -0.022945845 -0.02141025
-0.1463625 -0.018551096 -0.07219477 -0.008063661 0.06769114 -0.09178733 0.01556874 0.075968504
-0.050293688 0.030465538 -0.101131395 0.06791708 0.049661305 -0.007871508 -0.07651601 0.015846334
-0.048598636 -0.00713925 -0.0059157074 -0.063456014 -0.0049334466 0.009538298 -0.09872435 0.023174878
-0.04876779 -0.052409362 0.046779275 -0.022453846 0.07441445 -0.07878614 -0.05172299 0.010793579
-0.11649529 0.004177777 -0.088446006 0.04947376 -0.04236455 -0.050196216 0.10251916 -0.0052351817
0.039365523 0.053436007 0.052015666 0.040822003 0.05048213 0.017359605 0.11676094 0.077049404
00000000: b4bb a0bd 3f47 133c ab84 82bc 4710 1bbe
00000010: 824a d23b 724c 10bd 25ce ca3c a736 213d
00000020: adbc 213e 6c89 79bd 8587 073e 7f59 b63d
00000030: 5d2e 1c3c a3ec c33c ad1b 343d 767c 82bc
00000040: 6bbb a83d b8bc 15be 6f9c dfbd f7a6 76bd
00000050: 02ea acbb 2485 553c a165 8fbd 32cd 4fbc
00000060: 7138 bf3c db2a 823d 3346 ca3d 910a ce3d
00000070: 60ee a2bb f9a8 abbd e5e1 36bd 847f 043d
00000080: c648 723c b275 1d3b 7c0c 3cbd 2bd1 02bb
00000090: f8ba 943d f0ad 1bbe f022 6c3d 6b1d c5bc
000000a0: dcd6 a8bc b89b ce3d 083a f73c d801 0bbd
000000b0: 1156 fb3c 7cbb cc3d 4979 0abe 5bc0 b73d
000000c0: 19ed 5dbd 07c7 c2bd 0686 633d 5da8 0ebc
000000d0: d770 453b fa6e 15bd 76e5 a9bd 0904 20bd
000000e0: a43d d23c 214c 693d 3d2c 26bd 1f5f 0b3d
000000f0: 33c1 0ebd 85d7 5fbd eb4a b8bc fe0b adbc
00000100: 4dba 6f3d 915c 0cbd 10d0 623d 3171 03be
00000110: e6a1 00be 3744 87bd b0df d13d 3215 01ba
00000120: f725 3c3e aad6 13bd 131b e93d 9421 ef3d
00000130: d663 05bd 067b 953b 1c05 96bd fb5f 5e3d
00000140: f34c ddbd 371d c7bc 29cc 013d 8924 9abc
00000150: 083b 67bd ad0e c73c 499c ab3d 92ff e73a
00000160: cd67 e83c 7a32 02bd 824c 7d3d dfc4 b63d
00000170: cb39 9a3d cdd5 b4bc 9cce 363e 290e 883d
00000180: bc0f ad3d adf4 393d dd6a 113e 54cc 96bc
00000190: 9be0 a5bd b012 f9ba bc5b ebbc ad4e 6fbd
000001a0: c6ed e53d 2518 99bd 86db b6bb 7b1f 0c3e
000001b0: 83ca 5dbd dc60 433e 9ac7 b5bb 541f c63c
000001c0: c7af 45bd 007f 1a3d 8992 9bbd 42f8 b63d
000001d0: 6b0e fe3d 745e 4f3d 3d75 65bd f19c fb3d
000001e0: 3a21 1b3e fd29 a3bc 9a64 9f3d 4039 f73b
000001f0: 43da bdbd bc47 63bd 4997 12be feaf 11bd
00000200: 06ea d83b 3547 9bbd ff07 15bd cf82 a23c
00000210: 28a3 5c3d 23bc 153c ac33 54bd bd51 e33c
00000220: a5f1 3a3c 06ad 6abd 3ca6 bf3c 2b36 3d3d
00000230: 425a b53c 2f60 523c 51c4 2d3d 51f7 353d
00000240: 0e95 f23c e08e 99bd 7f7b 103d 4566 1ebc
00000250: c4ac 28bc 1ff7 d9bd 1397 1e3d d87a bd3b
00000260: 7094 b9bc 8ca3 973c 169f 473b 9c15 113d
00000270: 28b5 383d 3b5b 323d fc7b 98bd 8fbd a7bd
00000280: 4b92 b9bb 7aa2 763d b5d2 e5bc dc86 6dbc
00000290: 6c4a 0bbc 3666 9dbc cfc4 9fbc 63e5 5b3d
000002a0: 309e f53a 7ede a0bc 216e f1bd 366e b9bc
000002b0: e0ef c13b 18ec 9e3b 53b5 8b3b 189c 10be
000002c0: 96ee 17bc 42e5 04be 4aa1 1c3d 948e e4bd
000002d0: 2252 9ebc 743a b1bc 0ae6 9a3d 17d5 983d
000002e0: 5e77 15bd 9be8 47bd 37c4 5e3d 328a 3dbc
000002f0: 4bdb 223d 0db1 ebbc 5c43 e13c 806e 2bbd
00000300: c899 803d e812 9b3d 1718 abbd bc5e c4bb
00000310: 56d7 acbd fe34 883d 1920 37bd 6f5a 703c
00000320: facd b03d 8404 5e3d dcfe 0dbe 2c90 613d
00000330: 62fa 4e3d 077d 1e3d edf8 bbbc 8c64 afbc
00000340: 0de0 15be 78f8 97bc dada 93bd 721d 04bc
00000350: a7a1 8a3d fffa bbbd 0714 7f3c 6095 9b3d
00000360: c100 4ebd dd92 f93c fa1d cfbd 1c18 8b3d
00000370: a769 4b3d 7ff7 00bc 6db4 9cbd 2cd0 813c
00000380: 5d0f 47bd 5ff0 e9bb 8dd8 c1bb 3af5 81bd
00000390: c0a8 a1bb 8546 1c3c fe2f cabd 3ed9 bd3c
000003a0: bcc0 47bd 33ab 56bd a09b 3f3d 21f1 b7bc
000003b0: 9a66 983d a15a a1bd 7cdb 53bd 8dd7 303c
000003c0: 1595 eebd bce5 883b 2e23 b5bd ffa4 4a3d
000003d0: 7386 2dbd 8c9a 4dbd 91f5 d13d e38b abbb
000003e0: be3d 213d b7df 5a3d 610e 553d f934 273d
000003f0: 5ac6 4e3d bb35 8e3c 5c20 ef3d 14cc 9d3d

actor.6.bias f4 [15]
-0.19919416 -0.20358677 -0.11362508 0.14504573 0.00095854566 -0.098426506 -0.07768278 -0.14221935
0.14074689 -0.08045782 0.030356618 0.16776355 -0.10255576 0.034304928 0.032358795
00000000: 8ef9 4bbe 0d79 50be 44b4 e8bd de86 143e
00000010: e946 7b3a d693 c9bd 2618 9fbd f3a1 11be
00000020: f41f 103e 12c7 a4bd 71ae f83c 35ca 2b3e
00000030: c108 d2bd 5383 0c3d a88a 043d
